app/nihl.onnx (onnx, 16501 bytes, 5 tensors)

sequential_1/dense_5/MatMul/ReadVariableOp:0 f4 [32, 1]
00000000: a0af 273f 5b0a 1d3f d126 5bbf 1427 e6be
00000010: 14db 183f 693c 81bf b586 153f bf6f 503f
00000020: 4a83 04bf 99ea 11bf 8f6c 113f d436 163f
00000030: 3a75 fe3e f848 303f 2537 34bf 2c37 17bf
00000040: db44 e3be 5b78 253f 04b6 2b3f bc19 21bf
00000050: bff9 163f 37d9 933e 3f69 2fbf c03e 293f
00000060: a825 533f 5644 223f 7263 543e 81b6 923e
00000070: c8ea 303f 2445 03bf 9f6e debe 2904 093f
0.6550236 0.61343926 -0.85606104 -0.4495169 0.59709287 -1.0096561 0.5840867 0.8142051
-0.5176283 -0.5699859 0.5680627 0.5867741 0.49698812 0.6886134 -0.70396644 -0.5906856
-0.4438847 0.6463677 0.6707461 -0.6292989 0.5897483 0.2887666 -0.6851997 0.66111374
0.82479334 0.6338552 0.2074106 0.28654864 0.6910825 -0.51277375 -0.43443772 0.5352197

sequential_1/dense_4/MatMul/ReadVariableOp:0 f4 [64, 32]
00000000: 2135 443e faf5 d53d 15ed 403e 2c62 53bd
00000010: cf01 fa3b 0c03 8f3d 242c ea3d 4a35 dcbc
00000020: 66e2 943d feb0 703e 27fe ccbd 205a 9dbd
00000030: 8d8c e83d d1b3 853e 3b82 313e e9da 333e
00000040: 9f70 843d 36e1 b73d a22d 47bd fa37 34bc
00000050: 778d 063e 1cf0 07be 202d 6ebb 379e 6e3e
00000060: 08e5 053d b1cc 5dbc 2284 46be 1431 6d3e
00000070: d60e 383e 4150 6c3e 0d83 463e 0008 8d3e
00000080: 1587 76bd b2af c9bd 36ae ff3e 1ce7 d33d
00000090: 8a7d 96be 33a2 4e3e d04f 003d 4d0c 36be
000000a0: 80aa b63e 561c b13e c801 043e eba7 83be
000000b0: 2c67 96be fccf 08be ccc1 d53e 2e07 9b3e
000000c0: 1c62 f73e 8450 25be 6984 69be 76d7 e33e
000000d0: 7da6 ce3d d980 5dbe dc03 063f 9106 97be
000000e0: b1ea 34be 721d abbd e19e 78be 7e1f acbe
000000f0: 92f0 64be 67e1 fe3e a6e5 ea3e 5dc7 8dbe
00000100: f770 40be 6aba 653c 101c da3d a9eb ed3e
00000110: 27c2 98be 2e4c 3d3e 1736 4fbd 6929 73be
00000120: 4cf3 4c3d 23c9 d23e b037 893d 60ff 41be
00000130: d982 12bd b83f 5ebe c3bd d53e a478 ae3e
00000140: 8db7 f93d f76b 14bd 5070 623c 628e bb3e
00000150: e03f 243c 4b84 a5bc 4a29 7f3e f046 d1bd
00000160: 332f 7ebe 7f99 58be c5c3 bb3d 1de8 993d
00000170: 102b b9bd 8fca c33e 7b98 7e3e a046 52be
00000180: 610a a6bd fcc0 8d3e a905 6bbd 0814 9d3d
00000190: 8440 193e 8cc7 ff3c 93b2 403e 38e9 263e
000001a0: e74d 633e 2dfd 96bd 990a 9b3e 3446 283e
000001b0: 7362 9b3d 447c 27bc d94a a7bd 2b7f 02be
000001c0: f780 a2bd 9707 823e 5ad0 a73e f69d cfbd
000001d0: 380c 963e b449 33be e7ad 7b3e 5960 94bb
000001e0: ad59 aa3c 9878 793e b785 3bbd a5db 2c3d
000001f0: 3307 5ebd 50ad b5bd e6c7 9abd d790 0b3e
00000200: ce4b fabe f695 cfbd c1e8 6e3e ae3a f33e
00000210: fcc0 9cbe 1019 e13e 3c77 27be 68de d8be
00000220: 0e79 f33e 4784 0a3f 7ba1 b6be 74b9 19be
00000230: 3e4c 11be da44 94be ce52 a83e eda3 5f3e
00000240: 6ab8 ae3e 53cb 84bc 0c54 adbe 2c2c 7e3e
00000250: 35ce c7be 24ea 45bc 8297 083f a814 4cbe
00000260: 58e3 8ebe 870b f5be d684 213c 6eb1 66bd
00000270: 0a04 9bbd f6be 253f d23f 613d a2fc 5cbe
00000280: 4ddc 1ebd 5e06 42bd 586c 983e bbab 0d3d
00000290: 5f3d 883d 7a6a 5a3e 3a9d c63d 32ec 1bbe
000002a0: cf3e 503d 2739 953d c8ec f4be 87ea 233e
000002b0: 32e5 67be 5c42 333e 74f3 213d e6e5 c83e
000002c0: da20 303c 6a6c eb3c 3241 da3d fe10 313d
000002d0: 5b1c a6bd 60f3 0fbe e209 3c3e f0a9 3fbe
000002e0: 5b6e 573e 98c8 9abe ffec 003b dd12 c33c
000002f0: 47cb b83d 5bf2 8d3d 597e af3d 4a11 96be
00000300: 3068 443e c806 ff3e b518 b1be 9cff e1be
00000310: 248b e53e 90dd c5be ecf0 8f3e 4e66 ca3e
00000320: b7d1 82be 3fea 41be f2aa 7c3e 20a6 1a3e
00000330: 9cdf 1c3f 75a4 c43e 1d00 5bbd 9248 9abe
00000340: 21f8 05be 172a c43e 0414 153f 778c b0be
00000350: aa2b 103e 7aea 993e 1ecd eebc debb 143f
00000360: f8c8 943e 432d 803e a52c 313e f701 153f
00000370: 411f f83e 21c3 c6be 0612 b6be abdd e23e
00000380: 06b1 f23d 2ec4 51bd 863a 503e 5166 ab3e
00000390: 960e 4cbe 0b5c 873e 7e51 8cbe b816 e33d
000003a0: 7dd0 8c3e 7988 91bc 56d0 ef3c 63d9 1dbd
000003b0: 6c1e 08bd d108 c23c ac37 bb3e 1527 c03e
000003c0: ad47 cbbd f60d 0d3e 439f 9fbe 1cf7 5f3e
000003d0: 070b dc3d d666 123e e831 ff3d 13af cdbc
000003e0: 2609 e73d 6e44 483e 9a78 80bd 4e15 023d
000003f0: 196f 33be 9622 433d 1165 943e 4e62 8e3d
0.19160892 0.10447307 0.1884044 -0.051607296 0.00762961 0.06983003 0.114342004 -0.026880879
0.072697446 0.23505017 -0.10009413 -0.076832056 0.11354933 0.26113752 0.17334835 0.17563976
0.06466793 0.089785025 -0.048627503 -0.010999674 0.13139902 -0.13275188 -0.0036342815 0.23302542
0.032689124 -0.013537572 -0.19386342 0.23163253 0.1797441 0.2307749 0.1938593 0.27545166
-0.060187418 -0.09847964 0.499376 0.10346815 -0.29392654 0.20179062 0.031326115 -0.1777813
0.35676956 0.3459193 0.12891304 -0.2571405 -0.2937559 -0.1336059 0.41749418 0.30278915
0.4831704 -0.16143996 -0.22804417 0.4450032 0.10090349 -0.21631183 0.5234964 -0.29497197
-0.17667653 -0.083552256 -0.24279357 -0.33617777 -0.22357395 0.49781343 0.45878333 -0.27691165
-0.18793093 0.014021495 0.10649884 0.46468857 -0.29835626 0.18486091 -0.050588693 -0.23746265
0.050036713 0.4116908 0.06700075 -0.18945074 -0.035769317 -0.21703994 0.4174634 0.34076416
0.12193213 -0.036235776 0.013820723 0.36632067 0.010024995 -0.020204684 0.24918094 -0.102186084
-0.24822693 -0.21152304 0.091681994 0.07514975 -0.09041417 0.38240477 0.24862854 -0.20534754
-0.08107448 0.27686298 -0.057378445 0.07669836 0.14966017 0.031223081 0.1881812 0.16299903
0.22197686 -0.07372508 0.30281523 0.1643303 0.07587137 -0.010222498 -0.08168573 -0.12743823
-0.07934754 0.25396416 0.32776147 -0.101375505 0.29306197 -0.17508584 0.24578057 -0.004528087
0.020794714 0.24362409 -0.045781817 0.042201657 -0.054206084 -0.08870947 -0.07557659 0.13629471
-0.4888596 -0.10136025 0.23330976 0.47505707 -0.30615985 0.43964434 -0.16354078 -0.42357183
0.47553295 0.5410809 -0.35670075 -0.15012151 -0.1418924 -0.2895878 0.32875675 0.21839876
0.34125072 -0.016210234 -0.33853185 0.24821538 -0.3902451 -0.012079749 0.5335618 -0.19929755
-0.27907825 -0.47860357 0.009858331 -0.056321554 -0.0756913 0.6474451 0.054992504 -0.21580747
-0.038784314 -0.047369353 0.2977016 0.034587603 0.066523306 0.2132968 0.09697957 -0.1522682
0.05084115 0.072862916 -0.478369 0.16007434 -0.22646025 0.17505783 0.039538816 0.392379
0.01075002 0.02873822 0.10656966 0.043229096 -0.08110877 -0.14057684 0.18363145 -0.1871717
0.21038191 -0.30231166 0.001967251 0.023812706 0.09023147 0.06930991 0.08569021 -0.29310066
0.1918037 0.4980986 -0.34589162 -0.44140327 0.44832718 -0.386456 0.28113496 0.39531177
-0.25550625 -0.18937014 0.24674585 0.15102434 0.612787 0.3840672 -0.053466905 -0.30133492
-0.13082935 0.38313362 0.58233666 -0.34482166 0.14079157 0.30061704 -0.029150542 0.5809916
0.29059577 0.25034532 0.17302187 0.58206123 0.48461345 -0.38820747 -0.35560626 0.44309744
0.11850171 -0.051212482 0.20334825 0.334765 -0.19927439 0.2643741 -0.27405924 0.11088318
0.27502814 -0.01776527 0.029274147 -0.038537394 -0.033232138 0.023685845 0.36565912 0.37529817
-0.099257804 0.13774857 -0.31176195 0.21871608 0.10744291 0.14297041 0.12460691 -0.025107896
0.11281042 0.19557354 -0.06273003 0.0317586 -0.17522849 0.047640406 0.28983358 0.06952344

sequential_1/dense_4/BiasAdd/ReadVariableOp:0 f4 [32]
00000000: 22ed 7d3e 6a90 453e dccc 693d d5f2 a33c
00000010: 6721 513e 5277 8a3d 2fce 843e 63d3 793e
00000020: fde4 69bc b9d8 873d 989d 483e c012 553e
00000030: 2b4f 7f3e 9f64 9e3e 7bf2 3d3d 7128 373d
00000040: 0692 debb 2cf4 113e a5b2 8c3e abe7 963d
00000050: e111 3f3e 7575 0b3d dda3 e43c e041 a43e
00000060: 6122 9e3e 65bb 1d3e 9536 283e af97 ac3e
00000070: 2934 8a3e c543 6d3d 28cd 0fbc c6af a23e
0.2479749 0.19293371 0.057080135 0.020013252 0.20422898 0.0676104 0.25938556 0.24397044
-0.0142757865 0.066331334 0.19591367 0.20807934 0.24932544 0.30936143 0.046373826 0.044716302
-0.0067923097 0.142533 0.27480045 0.07368406 0.18659164 0.034047563 0.027910167 0.3208151
0.30885604 0.15403517 0.16427071 0.33709475 0.2699292 0.05792596 -0.00877694 0.3177473

sequential_1/dense_3/MatMul/ReadVariableOp:0 f4 [24, 64]
00000000: 00c1 0d3e d7ac f3be a1f8 17bf 2c14 ce3e
00000010: 7879 17bf 8405 bbbe f6dc 0d3f 40a8 93be
00000020: ba8b 0f3f 074f 91bd f007 2bbf 6822 34be
00000030: 403c 1a3f 5415 29bf dec5 cebe f47d 8dbe
00000040: f8d0 b6be 8a66 183f 249d e2be d5c8 f33e
00000050: 5663 1e3e a115 10bf 70b6 32bf 430f 22bf
00000060: b114 2abf bb23 2cbf e147 29bf 9253 8e3e
00000070: f40e 87bd 269f 03bf 062c 0fbf 44a9 d2be
00000080: 0d71 28bf e15d 983e 72fc 15bf a225 fa3e
00000090: c161 9dbd dbeb dc3e fb71 083f c4f3 bebe
000000a0: 3799 2abf 0025 a83e 946d d2be a880 09bf
000000b0: 0bd4 223f fdf5 80be 3dd1 503e f790 0ebf
000000c0: fc40 d2be f3c8 7f3d 7208 15bf 7fc5 bdbe
000000d0: 7604 ab3e babb c33e 3ea1 053f 110e 1ebf
000000e0: 5442 aa3e 59be 04bf 010a e73e 9104 47be
000000f0: 933f 913e 69d1 21bf 6ecb 1fbf c6f3 2dbf
00000100: 42fa 843d 6eed 5ebb 725e 283d 0ab3 503d
00000110: 00e6 05bc c596 193c 5c96 353c 79c8 c3bc
00000120: 3603 1dbd e3b6 d03d b375 813b a243 31bd
00000130: 6f9b 49bc 93a7 6d3c b499 0abe 5454 60bd
00000140: 1e3b 423e 510f 9cbb afe1 cc3b d665 0abd
00000150: e967 8abd 2b3b baba e400 11bc 868d 5f39
00000160: e860 303a 811f 8c3c 062e f8bb 8435 b33d
00000170: c5c3 a13c 9717 863d 5329 22bc e232 6dbb
00000180: 9c46 ac3c c229 cd3c ac59 bc3c 34e1 33bc
00000190: 52d1 3fbd 7def f93c 9a3c 62bb b095 013c
000001a0: f0dc a2bc 7dbc 183d e1e0 4c3e b776 91bc
000001b0: e8b8 963b c775 7c3c 6034 32be be26 b43d
000001c0: 2903 7abe 3442 5a3e 86cf 353b d5b7 2ebd
000001d0: 60f0 75bd 190d 683d 1a40 983c b2d1 20bc
000001e0: 619b 973d c3c1 1b3d e420 0a3e 6581 f13b
000001f0: d3d3 8abd 9e5c 933c e7a7 023c bb64 adbc
00000200: ab61 b3bd e3fc 543d b61a 563b a5fd 5c3d
00000210: 876a fbbb 149b 933e eb19 0a3c c65c 2e3e
00000220: f631 ca3b 0af0 01be 10b6 dcba 5f6e 1bbd
00000230: 5226 003c 36d3 803c 48d8 9bbd bdd6 87bd
00000240: 0104 bf3d abc0 a33c 3f23 14be c70a 973d
00000250: a5f4 8bbe 4822 19bc 6ae6 afba 66d8 7ebc
00000260: fdaf f3bb beea 093c 430c a5bb b889 303e
00000270: 6b3d 313e dc32 e2bc 1c7b c7bc 5056 1abe
00000280: ed20 f1ba a356 0bbd 5df7 0d3d bb4d 313c
00000290: 7dbb b33d 7607 1f3c 8490 2a3d 33ac 69bd
000002a0: 9ff5 36bc ab7c e63c 9d66 e43d 5db6 143d
000002b0: 644d 883c 89f9 dfbc 82ae 48be 17fa bc3c
000002c0: 3135 643d 531f 46be 5af0 c8bc ffa3 8dbb
000002d0: 8faf 9c3d cb11 533d b13e 2b3c afcc b0ba
000002e0: 4d56 78bd d464 6dbc 3ee5 f93d 4f79 b53d
000002f0: b9a2 71bc e0a4 0ebc ae23 493c 059a cebc
00000300: aa29 d7bb 20f4 20bd bfbb 8f3e e1ff f3bd
00000310: 958a 263e c538 96bd 9dd8 9fbe c77c 6b3c
00000320: 49e1 8fbe 6cf6 de3d ad2a 2a3e 76ed 47bd
00000330: 5526 d9bc 46c1 3d3e e81d afbd 9300 423c
00000340: 8852 763e f30a 8dbe 6d3e 563e 63c1 86be
00000350: 24d3 a03d bf62 263d 55da ba3e 6231 083e
00000360: 578b 553e 2469 193e 7af8 fa3d 465c ca3c
00000370: e7ff 94bb 74aa cbbd c862 8dbb 2a46 053e
00000380: 8f45 4f3c c922 1a3e 1ba3 9e3c 1d24 3e3d
00000390: 8cff a03d 6bf5 1abe 8f8b e4bd f65c e33d
000003a0: 3486 4e3d 86f2 29be f101 fcba a6dc 2e3e
000003b0: 274b cdbd 37fe 853d 6e98 a4be 42db 813d
000003c0: cdaf 8bbb 82cf 0e3d 7d62 f43d 13d8 b63d
000003d0: 1625 e93b c6c4 d6bc d144 8abe 557d 1f3e
000003e0: 4e4c 31be c3df ee3d 3cc1 02be deb4 663e
000003f0: e5f8 6cbe 22bb e83d 4c14 373d d47f 903d
0.13843155 -0.47592804 -0.5936375 0.40249765 -0.5916972 -0.36527646 0.55415285 -0.28839302
0.5607258 -0.070951514 -0.66808987 -0.1759125 0.60248184 -0.6604817 -0.40385336 -0.27635157
-0.35706306 0.5953146 -0.44260514 0.4761416 0.15467581 -0.56283003 -0.6980963 -0.6330454
-0.6643782 -0.6724202 -0.66125304 0.27798134 -0.06594649 -0.51414716 -0.5592655 -0.41144764
-0.657975 0.29759124 -0.58588326 0.48856837 -0.07684661 0.43148693 0.5329892 -0.37295353
-0.6664004 0.3284073 -0.41099226 -0.5371194 0.636048 -0.25187674 0.20392318 -0.5568995
-0.41065204 0.0624475 -0.5821601 -0.3706474 0.3340184 0.38229162 0.5219916 -0.61740214
0.3325373 -0.5185295 0.4512482 -0.19435336 0.28368816 -0.6321016 -0.62419784 -0.67950094
0.064930454 -0.003401603 0.041105695 0.050951995 -0.008172512 0.009374325 0.011083212 -0.023899304
-0.03833314 0.10191133 0.0039507984 -0.04327739 -0.012305125 0.014505285 -0.13535196 -0.05476792
0.18967864 -0.004762568 0.0062524895 -0.033788525 -0.067581005 -0.0014208307 -0.00885031 0.00021319659
0.00067283073 0.017104866 -0.007573846 0.08750442 0.01974667 0.06547468 -0.009897548 -0.0036193659
0.021029763 0.025044326 0.022991978 -0.010978986 -0.046830483 0.030509705 -0.0034520985 0.007909223
-0.019880742 0.03728913 0.2000766 -0.017756803 0.0045996793 0.01540894 -0.17402792 0.08796452
-0.24415268 0.21314317 0.0027742102 -0.042655785 -0.060043693 0.056653116 0.018585254 -0.00981562
0.07402683 0.038026582 0.1348911 0.0073701614 -0.067786835 0.0179885 0.007974601 -0.021166196
-0.08758863 0.051998984 0.003266973 0.05395283 -0.007672611 0.28829253 0.008429031 0.17027578
0.0061705066 -0.12689224 -0.0016838927 -0.037947055 0.007821636 0.015725713 -0.07609612 -0.06632755
0.093269356 0.019989332 -0.1446657 0.073751025 -0.27335086 -0.009346552 -0.0013420109 -0.015554523
-0.007436751 0.008417783 -0.005036862 0.17240036 0.17308585 -0.027612142 -0.024350695 -0.15071988
-0.0018396653 -0.03401817 0.034659732 0.010821755 0.08775995 0.009706369 0.041641727 -0.057048988
-0.011166959 0.028135618 0.111523844 0.036306728 0.016638465 -0.027340667 -0.1959782 0.02306847
0.05571479 -0.19347887 -0.024528671 -0.0043225284 0.07650673 0.05153064 0.0104519585 -0.0013488735
-0.060629178 -0.014489371 0.122019276 0.088610284 -0.014748269 -0.008706301 0.012276573 -0.025219927
-0.006566246 -0.039295316 0.28072926 -0.119140394 0.16263802 -0.07335047 -0.3121995 0.014373011
-0.28101566 0.10886845 0.16617842 -0.048810445 -0.026507536 0.18530759 -0.08550626 0.011840957
0.2405492 -0.27547416 0.20922251 -0.26319417 0.07852772 0.040621515 0.364947 0.13300088
0.20853935 0.14981514 0.122544244 0.024702203 -0.0045471075 -0.09944621 -0.004314754 0.13015047
0.012650861 0.15052332 0.019364884 0.04642116 0.07861242 -0.15132682 -0.11159431 0.11101715
0.050420955 -0.16596422 -0.0019226653 0.17076358 -0.100241 0.06542628 -0.32147545 0.06340648
-0.0042629004 0.034865864 0.11932848 0.08927932 0.0071150167 -0.026216876 -0.27005628 0.15575154
-0.17314264 0.11663773 -0.12769026 0.22529933 -0.2314182 0.11363818 0.04469709 0.07055631

sequential_1/dense_3/BiasAdd/ReadVariableOp:0 f4 [64]
00000000: 1d86 15be 834a f33d 9ab8 233d 4ac3 06be
00000010: f373 d23d f474 c43d 1951 1cbe 258e 0dbc
00000020: b66e 1dbe 3ffa 1fbe 0210 053e 46dd b0bd
00000030: ab3c 3bbe 9fd9 0e3e 9b34 4bba 3298 c4bd
00000040: c7d4 153d 1902 47be ef70 b0bc 8c7d ccbd
00000050: c714 debd 67ae 393e 20de 2f3e 82ab 143e
00000060: e505 913d c738 553e a1e2 143e 3252 f3bd
00000070: c696 0dbe addc f53b 1a63 af3d 4609 923c
00000080: 555f 223e cf51 fabd 6446 ca3d a012 27be
00000090: 5418 37be 77e2 25be f8a0 5fbe 2121 59bd
000000a0: a0fb 0b3e 0c1b 04be 30b1 a73d dd15 f63d
000000b0: ba8f 50be 04fb 64bb 94bd d5bd 3a0e a03d
000000c0: 39cf e03a 2c9f 21be 3ece 223e b412 353d
000000d0: d1ab 1ebe 7c6e 43be 4248 5ebe 2f69 0a3e
000000e0: b9bc 14be 2fc6 ca3d 4443 0cbe 39dc 16bd
000000f0: 5ad2 57be 1152 aa3d ae13 473e 26a6 0b3e
-0.14601941 0.11879446 0.03997097 -0.13160434 0.10276022 0.095926195 -0.15265311 -0.008639847
-0.15374264 -0.15622805 0.12994388 -0.086359546 -0.18284862 0.13950203 -0.0007751674 -0.095993415
0.036579873 -0.19434394 -0.021538226 -0.09984884 -0.10843807 0.18132935 0.17174578 0.1451855
0.070812024 0.2082244 0.14539577 -0.11880912 -0.13827047 0.0075031132 0.08563824 0.017826688
0.15856679 -0.12222635 0.09876707 -0.16315699 -0.17880374 -0.1619967 -0.21838748 -0.05301011
0.13670206 -0.12900943 0.08188093 0.12015889 -0.20367327 -0.0034939656 -0.1043655 0.078152135
0.0017151601 -0.15783376 0.15898988 0.04420729 -0.1549523 -0.19085115 -0.21707252 0.13516687
-0.14525117 0.09901082 -0.13697535 -0.036831114 -0.21076337 0.08316434 0.19441101 0.136376
